# yolov8s2.yaml
nc: 2  # number of classes (2 classes: round markers and square markers)
depth_multiple: 0.33
width_multiple: 0.50

backbone:
  # [from, number, module, args]
  - [1, 1, Conv, [64, 3, 1]]
  - [1, 1, Conv, [128, 3, 2]]
  - [3, 1, BottleneckCSP, [128]]
  - [1, 1, Conv, [256, 3, 2]]
  - [6, 1, BottleneckCSP, [256]]
  - [1, 1, Conv, [512, 3, 2]]
  - [9, 1, BottleneckCSP, [512]]
  - [1, 1, Conv, [1024, 3, 2]]
  - [3, 1, BottleneckCSP, [1024]]

head:
  - [1, 1, Conv, [512, 1, 1]]
  - [1, 1, nn.Upsample, [None, 2, 'nearest']]
  - [1, 1, Concat, [1]]
  - [1, 1, BottleneckCSP, [512, False]]
  - [1, 1, Conv, [256, 1, 1]]
  - [1, 1, nn.Upsample, [None, 2, 'nearest']]
  - [1, 1, Concat, [1]]
  - [1, 1, BottleneckCSP, [256, False]]
  - [1, 1, Conv, [128, 1, 1]]
  - [1, 1, nn.Upsample, [None, 2, 'nearest']]
  - [1, 1, Concat, [1]]
  - [1, 1, BottleneckCSP, [128, False]]
  - [1, 1, Conv, [64, 1, 1]]
  - [1, 1, nn.Upsample, [None, 2, 'nearest']]
  - [1, 1, Concat, [1]]
  - [1, 1, BottleneckCSP, [64, False]]
  - [1, 1, Conv, [32, 1, 1]]
  - [1, 1, nn.Upsample, [None, 2, 'nearest']]
  - [1, 1, Concat, [1]]
  - [1, 1, BottleneckCSP, [32, False]]
  - [1, 1, Conv, [16, 1, 1]]
  - [1, 1, nn.Upsample, [None, 2, 'nearest']]
  - [1, 1, Concat, [1]]
  - [1, 1, BottleneckCSP, [16, False]]
  - [1, 1, Conv, [8, 1, 1]]
  - [1, 1, nn.Upsample, [None, 2, 'nearest']]
  - [1, 1, Concat, [1]]
  - [1, 1, BottleneckCSP, [8, False]]
  - [1, 1, Conv, [4, 1, 1]]
  - [1, 1, nn.Upsample, [None, 2, 'nearest']]
  - [1, 1, Concat, [1]]
  - [1, 1, BottleneckCSP, [4, False]]
  - [1, 1, Conv, [2, 1, 1]]
  - [1, 1, nn.Upsample, [None, 2, 'nearest']]
  - [1, 1, Concat, [1]]
  - [1, 1, BottleneckCSP, [2, False]]
  - [1, 1, Conv, [1, 1, 1]]
  - [1, 1, nn.Upsample, [None, 2, 'nearest']]
  - [1, 1, Concat, [1]]
  - [1, 1, BottleneckCSP, [1, False]]
  - [1, 1, Conv, [0.5, 1, 1]]